…
<keras.layers.convolutional.Conv2D object at 0x7fcc77db6040> False
<keras.layers.pooling.MaxPooling2D object at 0x7fcc77db6d60> False
<keras.layers.convolutional.Conv2D object at 0x7fcc77dbcd00> True
<keras.layers.convolutional.Conv2D object at 0x7fcc77dbc7f0> True
<keras.layers.convolutional.Conv2D object at 0x7fcc77dc32e0> True
<keras.layers.pooling.MaxPooling2D object at 0x7fcc77dc3c70> True
Model: "sequential_1"
_________________________________________________________________
Layer (type)                 Output Shape              Param #   
=================================================================
lambda_1 (Lambda)            (None, 66, 200, 3)        0         
_________________________________________________________________
vgg16 (Model)                (None, 2, 6, 512)         14714688  
_________________________________________________________________
flatten_1 (Flatten)          (None, 6144)              0         
_________________________________________________________________
dense_1 (Dense)              (None, 512)               3146240   
_________________________________________________________________
dense_2 (Dense)              (None, 256)               131328    
_________________________________________________________________
dense_3 (Dense)              (None, 64)                16448     
_________________________________________________________________
dense_4 (Dense)              (None, 1)                 65        
=================================================================
Total params: 18,008,769
Trainable params: 10,373,505
Non-trainable params: 7,635,264
_________________________________________________________________
None
Train on 36324 samples, validate on 9082 samples
Epoch 1/40

  128/36324 [..............................] - ETA: 12:19 - loss: 1133.1173 - mean_squared_error: 1133.1173
…
